nlp-chatbot/data.pth (torch, 8235 bytes, 6 tensors)

l1.weight f4 [8, 118]
00000000: 2d01 42be e68a 573e cf1c 8f3c cb1e 48be
00000010: 69d5 1abf 9ba1 253f 55ca dbbd 5ced 49bd
00000020: d099 e13c e21b a53d 007e 0d3f dc38 963e
00000030: 0372 903e f5b9 d0be d11d 9a3d 4e5a cebd
00000040: 292e db3e fdb0 323e 1a69 0abf 8e6a 803d
00000050: 177e 00be 9a3f 06be 6985 3dbe 3b7a 21be
00000060: 5a20 cfbd b7c0 8c3e cb43 093f c319 5f3f
00000070: db28 4cbe 2f35 d2bc 157e 773e 96ea 153f
00000080: 7033 073f 8739 2cbc 81e9 f23e b32d 893d
00000090: 1592 c5bd ab11 75bd 931d 413e 54a7 973e
000000a0: 5a88 c83e aceb dc3e 4760 6cbe 12a8 3f3e
000000b0: d582 893e 10ae 0abc 9b34 143f dfc7 01bf
000000c0: b160 493e c13c b3bd 19b4 97be a891 4c3f
000000d0: 0ef7 45be 73ff 693f 6c8d 573f 4811 cf3e
000000e0: 6e1d 703e b758 1b3f 8518 90be 4cbb cd3e
000000f0: 79cd c63e d87a 11bd 2783 4abe f0b7 eb3e
00000100: 9318 f83c 6aa2 dd3d 61f4 e63e 44f4 983d
00000110: 2b07 15bd da0e 35be 7815 02be 9594 46be
00000120: 6c0c a6be 6c38 853b 7070 713e 067f 02bd
00000130: 7019 41be 0f60 1abe b5fc 143e 0920 023f
00000140: bed4 963e 3b59 8dbe 279a 9dbe 936d 473e
00000150: 9c93 7dbe 0b2f 14be e62c b93e 2fed 1fbe
00000160: a80a fa3e 8d1b 3f3f 0336 2fbd a993 ce3e
00000170: eb40 d2be 0950 05be 39b4 b8bd 7bdc 0e3f
00000180: 2305 81be 643a 01be 80f4 b3ba eefb 3b3f
00000190: c5bc 92be 0588 343e 8f31 e2bd 79f4 07be
000001a0: 123e a8be 30c1 84be 5f80 0abf afc5 21be
000001b0: 3362 b63d df3a eb3e c53f fdbd 9f45 4cbd
000001c0: 4e06 81be 394b 9cbd 76ee 08be 6b6e 0fbe
000001d0: 8fe4 7abe 6fd1 003c 0d45 b23e 56d2 0f3e
000001e0: fe4a a03e e4c7 bcbe 0a1e f13e 3e29 113f
000001f0: aa9d 06be dfa1 eb3d 7c7b 6b3e b9f8 7a3d
00000200: 5b17 50be 9cd6 d33d 438f b2be 86c5 d33e
00000210: 7aad 793e 83f1 ac3e 135a afbe 606c ee3d
00000220: 9dae 2e3f a10b 0b3e d4a6 983e c21f c3be
00000230: 8fe3 a1be 75ef 9abe 9e40 d53d c368 46be
00000240: 1da7 8abe 2999 d33e 8a2b a13e a336 90be
00000250: 9a6e 9c3d ef1e 423e 12bb 083f 0b5f bf3e
00000260: fc1f a9bd d25c 663e ecfd 923e 5547 7a3e
00000270: 0a77 f2bc dcbd 383e 4631 923e 10ac 8f3e
00000280: 9013 19bf 87de 3f3b 1aa7 09be 37f1 8b3e
00000290: 7ad2 223e a09a 293f 624f 07be 61cf 953e
000002a0: 1548 f03e 100f cebd 3299 753e e48a 15bb
000002b0: e3b7 5b3b 0bea aebe aaba f03d 257d bebd
000002c0: 17ba 0c3f 8022 013e 20e8 cb3d 95c1 8d3e
000002d0: 34ea d83e 604b 9e3e 0e60 013d a4f0 0d3e
000002e0: 653e aabe 48a1 c93e 7dbd 583e 7432 d43e
000002f0: 0b89 463e 0807 db3e 6247 a83e e0df 413e
00000300: b663 06be 7fee b5bd e141 133e 4df8 853e
00000310: 3a42 de3d e84d 7d3e 2ad4 c53e 4a02 d43e
00000320: ee6d c0be a235 593e 2f25 edbe dc28 c9be
00000330: a074 cfbe fe54 9a3e 5c36 b23e 5df7 34bf
00000340: c60d ea39 d6f7 a4be db1b 803e 4339 8e3e
00000350: cd49 d0bd 2575 a13e e633 003f cc45 08be
00000360: 5895 6f3e 4785 d5be c3b9 e03e 98e6 56be
00000370: 60a1 ed3d a564 0abd 0c5b da3e 82b9 d03e
00000380: 8ab9 d43e b391 543e 217d 3b3e 4668 ddbd
00000390: d9f5 1b3e 685a 9f3e 01d4 0c3f 9a9e 6a3e
000003a0: 5354 8abe 606c c23e c21a 933e 13c4 d23e
000003b0: 579b 8d3e 66d4 e8bc 530a b1bc 2e49 0f3f
000003c0: 7718 19bf ea49 46be ce86 683e a134 e63c
000003d0: d4b8 6cbd 579f ef3c 5a83 863e 2bc0 60bd
000003e0: f3e9 4f3e 97eb 87be 286e 64bd a680 9bbe
000003f0: cacc 0f3e 0827 0fbe a370 22bf 76b5 32bd
-0.18945761 0.2104908 0.017469792 -0.19542997 -0.6048189 0.64699715 -0.10731951 -0.04929863
0.027539164 0.08061959 0.55270386 0.29340255 0.28211984 -0.40766874 0.07525218 -0.10075818
0.42808655 0.17450328 -0.5406662 0.06270324 -0.125481 -0.131102 -0.18507923 -0.15769283
-0.101135924 0.2749078 0.5361907 0.87148684 -0.1993746 -0.025660126 0.2416919 0.58561075
0.5281286 -0.010511762 0.47443774 0.066981696 -0.096470036 -0.059831303 0.18858938 0.2961985
0.39166528 0.43148553 -0.23083602 0.18716457 0.2685763 -0.008464351 0.5789277 -0.50695604
0.19665791 -0.08751822 -0.2962959 0.79909754 -0.19332525 0.9140541 0.8420017 0.40442872
0.23448727 0.60682243 -0.28143707 0.4018196 0.38828638 -0.035517544 -0.19776593 0.4603877
0.030285155 0.10821994 0.4510832 0.07468465 -0.03638379 -0.17681447 -0.12703502 -0.19392617
-0.32431352 0.004065564 0.23578048 -0.03185942 -0.1885736 -0.15075706 0.14549525 0.5083013
0.29459184 -0.2760714 -0.3078167 0.19475393 -0.2476334 -0.1447107 0.36167067 -0.15617822
0.48836255 0.74651414 -0.04277612 0.4034703 -0.41065153 -0.13018812 -0.0901875 0.55805176
-0.25199232 -0.1261993 -0.0013729483 0.7343129 -0.28659645 0.17630012 -0.11044609 -0.13276853
-0.32859856 -0.2592864 -0.5410213 -0.15798067 0.08905449 0.45943353 -0.12365679 -0.049871083
-0.25200123 -0.07631535 -0.13372216 -0.14006965 -0.2450125 0.007862433 0.34818307 0.1404508
0.31307214 -0.36871254 0.4709323 0.56703556 -0.13146082 0.11505484 0.22996324 0.061272357
-0.2032141 0.10343668 -0.34874925 0.41361636 0.24382582 0.3377801 -0.3424841 0.11641765
0.6823519 0.13578655 0.2981478 -0.38110167 -0.31618926 -0.30260816 0.104127154 -0.19375901
-0.27080622 0.4132779 0.3147853 -0.28166685 0.07638283 0.18957113 0.53410447 0.373772
-0.08258054 0.22496346 0.28709352 0.24441274 -0.029597778 0.18041176 0.28553218 0.2806096
-0.59795475 0.0029276924 -0.1344265 0.2733247 0.15900603 0.66251564 -0.13213876 0.2925978
0.46929994 -0.10061467 0.2398422 -0.002281838 0.0033526353 -0.34162936 0.11754353 -0.09301213
0.5497145 0.12610817 0.09956384 0.27686754 0.42366183 0.30916882 0.031585746 0.13861328
-0.33250728 0.3938086 0.21166034 0.41444743 0.19388215 0.42778802 0.3286696 0.18933058
-0.13123974 -0.0888338 0.143806 0.26166 0.108524755 0.2473675 0.3863843 0.41407996
-0.3758387 0.21211866 -0.4631743 -0.39288986 -0.40518665 0.3014297 0.34807098 -0.70689946
0.0004464222 -0.32220334 0.25021252 0.27778062 -0.101703264 0.31534687 0.5007919 -0.13307875
0.23396814 -0.41703245 0.43891725 -0.20986402 0.116030455 -0.03378739 0.42647588 0.4076653
0.41547805 0.20758705 0.18309452 -0.10810904 0.15230502 0.31123662 0.5501099 0.22912064
-0.2701746 0.3797331 0.28731352 0.41165218 0.27657577 -0.028421592 -0.021611368 0.5597104
-0.59802955 -0.19364133 0.22707674 0.028101267 -0.057793453 0.029250784 0.26272088 -0.054870766
0.20304088 -0.26546928 -0.055769116 -0.30371588 0.14042965 -0.13979733 -0.6345312 -0.043630086

l1.bias f4 [8]
00000000: 906f 0a3f 3e18 543f 8470 223f 727e 4e3f
00000010: 1d33 303f 571d 083f c3eb 623f e24a 6e3f
0.5407648 0.8284949 0.63452935 0.8066169 0.6882799 0.5316977 0.88640994 0.9308301

l2.weight f4 [8, 8]
00000000: a782 a3bf 48bc ae3f d84e 11bf 9f37 603f
00000010: 6164 fbbe 7c20 803f c90d b93e dd4e 38bb
00000020: b279 03be 9918 9dbe dd43 14be acc2 933e
00000030: 3bc7 acbe c0fc a3bc 65a1 44be b8ee 2b3e
00000040: e444 44be 55ef 0c3f 26ec 953f 80e9 62bf
00000050: aef6 b83f 070c 763f 94ed 0d3e 382f c93f
00000060: 4684 b43f 8133 c63e c184 593e f5fe a53f
00000070: d08f 103f c4a1 8fbf a7e2 51bc b2b2 86be
00000080: eff4 f73e bed0 8f3f 5e63 77bf c25e 7c3f
00000090: a608 49bf b511 4abf 42ea 053f 8e91 2a3f
000000a0: 3070 b13d fe9d f03d d424 213e 6d7e 283e
000000b0: 296f 163d d9a7 c83f ebfe b23f 1812 6fbf
000000c0: 6ff2 823f 2157 04be 3772 cb3d 4618 a93e
000000d0: db59 9d3e d8b5 693f 2ffc 9e3f bb29 63bf
000000e0: 6fc1 413f e2e8 46bf 3db5 8f3f 19ea 6a3f
000000f0: 164b 9f3f 2b4a cf3e fe34 133e 0a14 243e
-1.2774247 1.3651209 -0.5676093 0.8758487 -0.4910002 1.0009913 0.3614333 -0.0028123178
-0.12839392 -0.3068283 -0.14479013 0.2885946 -0.3374575 -0.020017982 -0.19202192 0.16790283
-0.19166905 0.5505269 1.1712692 -0.8863754 1.4450281 0.961121 0.1386016 1.5717535
1.4102867 0.3871117 0.21242048 1.2968432 0.5646944 -1.1221242 -0.012810386 -0.2630821
0.48429057 1.1235578 -0.96636 0.9858209 -0.7852882 -0.7893327 0.52310574 0.6662835
0.08663976 0.117488846 0.15736705 0.16454478 0.036727104 1.5676223 1.3984045 -0.93386984
1.0230235 -0.12923862 0.09933894 0.33026332 0.30732617 0.91293097 1.242071 -0.8873555
0.7568578 -0.776991 1.1227185 0.91763455 1.244479 0.40486273 0.14375684 0.1602327

l2.bias f4 [8]
00000000: 02d3 b63e ee7b b3be d9f0 493f e763 85bb
00000010: 8c2f 3a3f 79fb 923e a20a ab3e 2cf0 203f
0.3570786 -0.35055488 0.7888313 -0.004070747 0.727288 0.28707483 0.3340655 0.62866473

l3.weight f4 [8, 8]
00000000: ea6f 07bf 4587 83bc f444 d9bf 5160 023f
00000010: 54f2 c93e d23d b3be 18d5 333f cd34 3ebe
00000020: 6397 0a3e 440e 9bbe 278b 333f 4c36 bdbf
00000030: 0626 213f c204 acbf 7b19 8fbf 7d5a 90bf
00000040: c3ee 1c3f 7e99 6fbe f4d9 56bf a10c c7bf
00000050: 9d9a 243e f43e ce3e a45b af3e 958d debd
00000060: 0aeb acbf 68b9 78be 65c3 0dbc e2b8 be3e
00000070: 2f8b 053f ce05 cebf c2d0 f0bd 564d fe3e
00000080: c261 5e3f 7625 96be c303 84bf 84bb 0f3f
00000090: 371f 1e3f a965 d2bf 6a51 97bf 75ae b4be
000000a0: 78b2 97bf e3ce 7ebe 3e8a 713f 5575 babf
000000b0: 1e6a 97bf 7913 ddbf 33ce b9bf 99e5 243f
000000c0: 48b6 b8bf 5ad0 5c3e 89c4 5ebf 7787 a3be
000000d0: 82b3 9abf fe52 4b3f 6d48 3d3f a135 db3e
000000e0: eafb 4d3d daf4 8ebe de69 fe3e 5952 06c0
000000f0: d906 d6bf 7344 373e be1a cf3d a232 68bd
-0.5290514 -0.016055712 -1.6974168 0.5092822 0.39442694 -0.35008103 0.7024703 -0.1857483
0.13534312 -0.3028432 0.70134205 -1.4782195 0.62948644 -1.3438952 -1.1179651 -1.1277615
0.6130182 -0.23398396 -0.8392632 -1.5550729 0.16074605 0.40282404 0.34249604 -0.108668484
-1.3509228 -0.24289477 -0.008652543 0.3725043 0.521655 -1.6095521 -0.117585674 0.49668378
0.86867917 -0.29325455 -1.0313648 0.561455 0.6176638 -1.6437274 -1.1821721 -0.3528935
-1.1851339 -0.24883609 0.94351566 -1.4567057 -1.1829259 -1.7271568 -1.4516052 0.6441284
-1.4430628 0.21563855 -0.8701864 -0.3193929 -1.2086031 0.7942351 0.7393864 0.42814353
0.050289072 -0.27921182 0.49690145 -2.098776 -1.672084 0.17897205 0.101125225 -0.056688912

l3.bias f4 [8]
00000000: 3885 97be ae6d 4c3e 38ef b33d d077 233e
00000010: 4d5c 90be 6869 663e 2258 aa3d edfe 963d
-0.29593825 0.19963714 0.08785862 0.15963674 -0.2819542 0.22501147 0.08317591 0.07372842
